{"format": "torch", "nodes": [{"name": "net", "id": 1641748606400, "class_name": "UNet(\n  (inc): DoubleConv(\n    (double_conv): Sequential(\n      (0): Conv2d(7, 64, kernel_size=(3, 3), stride=(1, 1), padding=(1, 1))\n      (1): BatchNorm2d(64, eps=1e-05, momentum=0.1, affine=True, track_running_stats=True)\n      (2): ReLU(inplace=True)\n      (3): Conv2d(64, 64, kernel_size=(3, 3), stride=(1, 1), padding=(1, 1))\n      (4): BatchNorm2d(64, eps=1e-05, momentum=0.1, affine=True, track_running_stats=True)\n      (5): ReLU(inplace=True)\n    )\n  )\n  (down1): Down(\n    (maxpool_conv): Sequential(\n      (0): MaxPool2d(kernel_size=2, stride=2, padding=0, dilation=1, ceil_mode=False)\n      (1): DoubleConv(\n        (double_conv): Sequential(\n          (0): Conv2d(64, 128, kernel_size=(3, 3), stride=(1, 1), padding=(1, 1))\n          (1): BatchNorm2d(128, eps=1e-05, momentum=0.1, affine=True, track_running_stats=True)\n          (2): ReLU(inplace=True)\n          (3): Conv2d(128, 128, kernel_size=(3, 3), stride=(1, 1), padding=(1, 1))\n          (4): BatchNorm2d(128, eps=1e-05, momentum=0.1, affine=True, track_running_stats=True)\n          (5): ReLU(inplace=True)\n        )\n      )\n    )\n  )\n  (down2): Down(\n    (maxpool_conv): Sequential(\n      (0): MaxPool2d(kernel_size=2, stride=2, padding=0, dilation=1, ceil_mode=False)\n      (1): DoubleConv(\n        (double_conv): Sequential(\n          (0): Conv2d(128, 256, kernel_size=(3, 3), stride=(1, 1), padding=(1, 1))\n          (1): BatchNorm2d(256, eps=1e-05, momentum=0.1, affine=True, track_running_stats=True)\n          (2): ReLU(inplace=True)\n          (3): Conv2d(256, 256, kernel_size=(3, 3), stride=(1, 1), padding=(1, 1))\n          (4): BatchNorm2d(256, eps=1e-05, momentum=0.1, affine=True, track_running_stats=True)\n          (5): ReLU(inplace=True)\n        )\n      )\n    )\n  )\n  (down3): Down(\n    (maxpool_conv): Sequential(\n      (0): MaxPool2d(kernel_size=2, stride=2, padding=0, dilation=1, ceil_mode=False)\n      (1): DoubleConv(\n        (double_conv): Sequential(\n          (0): Conv2d(256, 512, kernel_size=(3, 3), stride=(1, 1), padding=(1, 1))\n          (1): BatchNorm2d(512, eps=1e-05, momentum=0.1, affine=True, track_running_stats=True)\n          (2): ReLU(inplace=True)\n          (3): Conv2d(512, 512, kernel_size=(3, 3), stride=(1, 1), padding=(1, 1))\n          (4): BatchNorm2d(512, eps=1e-05, momentum=0.1, affine=True, track_running_stats=True)\n          (5): ReLU(inplace=True)\n        )\n      )\n    )\n  )\n  (down4): Down(\n    (maxpool_conv): Sequential(\n      (0): MaxPool2d(kernel_size=2, stride=2, padding=0, dilation=1, ceil_mode=False)\n      (1): DoubleConv(\n        (double_conv): Sequential(\n          (0): Conv2d(512, 512, kernel_size=(3, 3), stride=(1, 1), padding=(1, 1))\n          (1): BatchNorm2d(512, eps=1e-05, momentum=0.1, affine=True, track_running_stats=True)\n          (2): ReLU(inplace=True)\n          (3): Conv2d(512, 512, kernel_size=(3, 3), stride=(1, 1), padding=(1, 1))\n          (4): BatchNorm2d(512, eps=1e-05, momentum=0.1, affine=True, track_running_stats=True)\n          (5): ReLU(inplace=True)\n        )\n      )\n    )\n  )\n  (up1): Up(\n    (up): Upsample(scale_factor=2.0, mode=bilinear)\n    (conv): DoubleConv(\n      (double_conv): Sequential(\n        (0): Conv2d(1024, 512, kernel_size=(3, 3), stride=(1, 1), padding=(1, 1))\n        (1): BatchNorm2d(512, eps=1e-05, momentum=0.1, affine=True, track_running_stats=True)\n        (2): ReLU(inplace=True)\n        (3): Conv2d(512, 256, kernel_size=(3, 3), stride=(1, 1), padding=(1, 1))\n        (4): BatchNorm2d(256, eps=1e-05, momentum=0.1, affine=True, track_running_stats=True)\n        (5): ReLU(inplace=True)\n      )\n    )\n  )\n  (up2): Up(\n    (up): Upsample(scale_factor=2.0, mode=bilinear)\n    (conv): DoubleConv(\n      (double_conv): Sequential(\n        (0): Conv2d(512, 256, kernel_size=(3, 3), stride=(1, 1), padding=(1, 1))\n        (1): BatchNorm2d(256, eps=1e-05, momentum=0.1, affine=True, track_running_stats=True)\n        (2): ReLU(inplace=True)\n        (3): Conv2d(256, 128, kernel_size=(3, 3), stride=(1, 1), padding=(1, 1))\n        (4): BatchNorm2d(128, eps=1e-05, momentum=0.1, affine=True, track_running_stats=True)\n        (5): ReLU(inplace=True)\n      )\n    )\n  )\n  (up3): Up(\n    (up): Upsample(scale_factor=2.0, mode=bilinear)\n    (conv): DoubleConv(\n      (double_conv): Sequential(\n        (0): Conv2d(256, 128, kernel_size=(3, 3), stride=(1, 1), padding=(1, 1))\n        (1): BatchNorm2d(128, eps=1e-05, momentum=0.1, affine=True, track_running_stats=True)\n        (2): ReLU(inplace=True)\n        (3): Conv2d(128, 64, kernel_size=(3, 3), stride=(1, 1), padding=(1, 1))\n        (4): BatchNorm2d(64, eps=1e-05, momentum=0.1, affine=True, track_running_stats=True)\n        (5): ReLU(inplace=True)\n      )\n    )\n  )\n  (up4): Up(\n    (up): Upsample(scale_factor=2.0, mode=bilinear)\n    (conv): DoubleConv(\n      (double_conv): Sequential(\n        (0): Conv2d(128, 64, kernel_size=(3, 3), stride=(1, 1), padding=(1, 1))\n        (1): BatchNorm2d(64, eps=1e-05, momentum=0.1, affine=True, track_running_stats=True)\n        (2): ReLU(inplace=True)\n        (3): Conv2d(64, 64, kernel_size=(3, 3), stride=(1, 1), padding=(1, 1))\n        (4): BatchNorm2d(64, eps=1e-05, momentum=0.1, affine=True, track_running_stats=True)\n        (5): ReLU(inplace=True)\n      )\n    )\n  )\n  (outc): OutConv(\n    (conv): Conv2d(64, 1, kernel_size=(1, 1), stride=(1, 1))\n  )\n)", "parameters": [["inc.double_conv.0.weight", [64, 7, 3, 3]], ["inc.double_conv.0.bias", [64]], ["inc.double_conv.1.weight", [64]], ["inc.double_conv.1.bias", [64]], ["inc.double_conv.3.weight", [64, 64, 3, 3]], ["inc.double_conv.3.bias", [64]], ["inc.double_conv.4.weight", [64]], ["inc.double_conv.4.bias", [64]], ["down1.maxpool_conv.1.double_conv
…
